…
ig_mod.\", \"\"): v for k, v in orig_state_dict.items()\n","}\n","\n","model.load_state_dict(stripped_state_dict)\n","\n","criterion = TraseLoss(total_var_weight=TOTAL_VAR_WEIGHT)\n","\n","model.eval()"],"metadata":{"id":"BKmO0p5M-I4f","colab":{"base_uri":"https://localhost:8080/"},"executionInfo":{"status":"ok","timestamp":1749602494554,"user_tz":420,"elapsed":15861,"user":{"displayName":"Jayson Meribe","userId":"18347816154755748104"}},"outputId":"4f01689d-c0c8-4346-bfc2-ac755b28acc7"},"execution_count":5,"outputs":[{"output_type":"execute_result","data":{"text/plain":["Trase(\n","  (linear1): Linear(in_features=408, out_features=2048, bias=True)\n","  (layer_norm1): LayerNorm((2048,), eps=1e-05, elementwise_affine=True)\n","  (activation1): GELU(approximate='none')\n","  (linear2): Linear(in_features=2048, out_features=2048, bias=True)\n","  (layer_norm2): LayerNorm((2048,), eps=1e-05, elementwise_affine=True)\n","  (activation2): GELU(approximate='none')\n","  (encoder): Encoder(\n","    (transformer_encoder): Encoder(\n","      (layers): ModuleList(\n","        (0): ModuleList(\n","          (0): ModuleList(\n","            (0): LayerNorm(\n","              (ln): LayerNorm((2048,), eps=1e-05, elementwise_affine=False)\n","            )\n","            (1-2): 2 x None\n","          )\n","          (1): Attention(\n","            (to_q): Linear(in_features=2048, out_features=512, bias=False)\n","            (to_k): Linear(in_features=2048, out_features=512, bias=False)\n","            (to_v): Linear(in_features=2048, out_features=512, bias=False)\n","            (split_q_heads): Rearrange('b n (h d) -> b h n d', h=8)\n","            (split_k_heads): Rearrange('b n (h d) -> b h n d', d=64)\n","            (split_v_heads): Rearrange('b n (h d) -> b h n d', d=64)\n","            (merge_heads): Rearrange('b h n d -> b n (h d)')\n","            (attend): Attend(\n","              (attn_dropout): Dropout(p=0.0, inplace=False)\n","            )\n","            (to_out): Linear(in_features=512, out_features=2048, bias=False)\n","          )\n","          (2): Residual()\n","        )\n","        (1): ModuleList(\n","          (0): ModuleList(\n","            (0): LayerNorm(\n","              (ln): LayerNorm((2048,), eps=1e-05, elementwise_affine=False)\n","            )\n","            (1-2): 2 x None\n","          )\n","          (1): FeedForward(\n","            (ff): Sequential(\n","              (0): Sequential(\n","                (0): Linear(in_features=2048, out_features=8192, bias=True)\n","                (1): GELU(approximate='none')\n","              )\n","              (1): Dropout(p=0.0, inplace=False)\n","              (2): Linear(in_features=8192, out_features=2048, bias=True)\n","            )\n","          )\n","          (2): Residual()\n","        )\n","        (2): ModuleList(\n","          (0): ModuleList(\n","            (0): LayerNorm(\n","              (ln): LayerNorm((2048,), eps=1e-05, elementwise_affine=False)\n","            )\n","            (1-2): 2 x None\n","          )\n","          (1): Attention(\n","            (to_q): Linear(in_features=2048, out_features=512, bias=False)\n","            (to_k): Linear(in_features=2048, out_features=512, bias=False)\n","            (to_v): Linear(in_features=2048, out_features=512, bias=False)\n","            (split_q_heads): Rearrange('b n (h d) -> b h n d', h=8)\n","            (split_k_heads): Rearrange('b n (h d) -> b h n d', d=64)\n","            (split_v_heads): Rearrange('b n (h d) -> b h n d', d=64)\n","            (merge_heads): Rearrange('b h n d -> b n (h d)')\n","            (attend): Attend(\n","              (attn_dropout): Dropout(p=0.0, inplace=False)\n","            )\n","            (to_out): Linear(in_features=512, out_features=2048, bias=False)\n","          )\n","          (2): Residual()\n","        )\n","        (3): ModuleList(\n","          (0): ModuleList(\n","            (0): LayerNorm(\n","              (ln): LayerNorm((2048,), eps=1e-05, elementwise_affine=False)\n","            )\n","            (1-2): 2 x None\n","          )\n","          (1): FeedForward(\n","            (ff): Sequential(\n","              (0): Sequential(\n","                (0): Linear(in_features=2048, out_features=8192, bias=True)\n","                (1): GELU(approximate='none')\n","              )\n","              (1): Dropout(p=0.0, inplace=False)\n","              (2): Linear(in_features=8192, out_features=2048, bias=True)\n","            )\n","          )\n","          (2): Residual()\n","        )\n","        (4): ModuleList(\n","          (0): ModuleList(\n","            (0): LayerNorm(\n","              (ln): LayerNorm((2048,), eps=1e-05, elementwise_affine=False)\n","            )\n","            (1-2): 2 x None\n","          )\n","          (1): Attention(\n","            (to_q): Linear(in_features=2048, out_features=512, bias=False)\n","            (to_k): Linear(in_features=2048, out_features=512, bias=False)\n","            (to_v): Linear(in_features=2048, out_features=512, bias=False)\n","            (split_q_heads): Rearrange('b n (h d) -> b h n d', h=8)\n","            (split_k_heads): Rearrange('b n (h d) -> b h n d', d=64)\n","            (split_v_heads): Rearrange('b n (h d) -> b h n d', d=64)\n","            (merge_heads): Rearrange('b h n d -> b n (h d)')\n","            (attend): Attend(\n","              (attn_dropout): Dropout(p=0.0, inplace=False)\n","            )\n","            (to_out): Linear(in_features=512, out_features=2048, bias=False)\n","          )\n","          (2): Residual()\n","        )\n","        (5): ModuleList(\n","          (0): ModuleList(\n","            (0): LayerNorm(\n","              (ln): LayerNorm((2048,), eps=1e-05, elementwise_affine=False)\n","            )\n","            (1-2): 2 x None\n","          )\n","          (1): FeedForward(\n","            (ff): Sequential(\n","              (0): Sequential(\n","                (0): Linear(in_features=2048, out_features=8192, bias=True)\n","                (1): GELU(approximate='none')\n","              )\n","              (1): Dropout(p=0.0, inplace=False)\n","              (2): Linear(in_features=8192, out_features=2048, bias=True)\n","            )\n","          )\n","          (2): Residual()\n","        )\n","        (6): ModuleList(\n","          (0): ModuleList(\n","            (0): LayerNorm(\n","              (ln): LayerNorm((2048,), eps=1e-05, elementwise_affine=False)\n","            )\n","            (1-2): 2 x None\n","          )\n","          (1): Attention(\n","            (to_q): Linear(in_features=2048, out_features=512, bias=False)\n","            (to_k): Linear(in_features=2048, out_features=512, bias=False)\n","            (to_v): Linear(in_features=2048, out_features=512, bias=False)\n","            (split_q_heads): Rearrange('b n (h d) -> b h n d', h=8)\n","            (split_k_heads): Rearrange('b n (h d) -> b h n d', d=64)\n","            (split_v_heads): Rearrange('b n (h d) -> b h n d', d=64)\n","            (merge_heads): Rearrange('b h n d -> b n (h d)')\n","            (attend): Attend(\n","              (attn_dropout): Dropout(p=0.0, inplace=False)\n","            )\n","            (to_out): Linear(in_features=512, out_features=2048, bias=False)\n","          )\n","          (2): Residual()\n","        )\n","        (7): ModuleList(\n","          (0): ModuleList(\n","            (0): LayerNorm(\n","              (ln): LayerNorm((2048,), eps=1e-05, elementwise_affine=False)\n","            )\n","            (1-2): 2 x None\n","          )\n","          (1): FeedForward(\n","            (ff): Sequential(\n","              (0): Sequential(\n","                (0): Linear(in_features=2048, out_features=8192, bias=True)\n","                (1): GELU(approximate='none')\n","              )\n","              (1): Dropout(p=0.0, inplace=False)\n","              (2): Linear(in_features=8192, out_features=2048, bias=True)\n","            )\n","          )\n","          (2): Residual()\n","        )\n","        (8): ModuleList(\n","          (0): ModuleList(\n","            (0): LayerNorm(\n","              (ln): LayerNorm((2048,), eps=1e-05, elementwise_affine=False)\n","            )\n","            (1-2): 2 x None\n","          )\n","          (1): Attention(\n","            (to_q): Linear(in_features=2048, out_features=512, bias=False)\n","            (to_k): Linear(in_features=2048, out_features=512, bias=False)\n","            (to_v): Linear(in_features=2048, out_features=512, bias=False)\n","            (split_q_heads): Rearrange('b n (h d) -> b h n d', h=8)\n","            (split_k_heads): Rearrange('b n (h d) -> b h n d', d=64)\n","            (split_v_heads): Rearrange('b n (h d) -> b h n d', d=64)\n","            (merge_heads): Rearrange('b h n d -> b n (h d)')\n","            (attend): Attend(\n","              (attn_dropout): Dropout(p=0.0, inplace=False)\n","            )\n","            (to_out): Linear(in_features=512, out_features=2048, bias=False)\n","          )\n","          (2): Residual()\n","        )\n","        (9): ModuleList(\n","          (0): ModuleList(\n","            (0): LayerNorm(\n","              (ln): LayerNorm((2048,), eps=1e-05, elementwise_affine=False)\n","            )\n","            (1-2): 2 x None\n","          )\n","          (1): FeedForward(\n","            (ff): Sequential(\n","              (0): Sequential(\n","                (0): Linear(in_features=2048, out_features=8192, bias=True)\n","                (1): GELU(approximate='none')\n","              )\n","              (1): Dropout(p=0.0, inplace=False)\n","              (2): Linear(in_features=8192, out_features=2048, bias=True)\n","            )\n","          )\n","          (2): Residual()\n","        )\n","        (10): ModuleList(\n","          (0): ModuleList(\n","            (0): LayerNorm(\n","              (ln): LayerNorm((2048,), eps=1e-05, elementwise_affine=False)\n","            )\n","            (1-2): 2 x None\n","          )\n","          (1): Attention(\n","            (to_q): Linear(in_features=2048, out_features=512, bias=False)\n","            (to_k): Linear(in_features=2048, out_features=512, bias=False)\n","            (to_v): Linear(in_features=2048, out_features=512, bias=False)\n","            (split_q_heads): Rearrange('b n (h d) -> b h n d', h=8)\n","            (split_k_heads): Rearrange('b n (h d) -> b h n d', d=64)\n","            (split_v_heads): Rearrange('b n (h d) -> b h n d', d=64)\n","            (merge_heads): Rearrange('b h n d -> b n (h d)')\n","            (attend): Attend(\n","              (attn_dropout): Dropout(p=0.0, inplace=False)\n","            )\n","            (to_out): Linear(in_features=512, out_features=2048, bias=False)\n","          )\n","          (2): Residual()\n","        )\n","        (11): ModuleList(\n","          (0): ModuleList(\n","            (0): LayerNorm(\n","              (ln): LayerNorm((2048,), eps=1e-05, elementwise_affine=False)\n","            )\n","            (1-2): 2 x None\n","          )\n","          (1): FeedForward(\n","            (ff): Sequential(\n","              (0): Sequential(\n","                (0): Linear(in_features=2048, out_features=8192, bias=True)\n","                (1): GELU(approximate='none')\n","              )\n","              (1): Dropout(p=0.0, inplace=False)\n","              (2): Linear(in_features=8192, out_features=2048, bias=True)\n","            )\n","          )\n","          (2): Residual()\n","        )\n","      )\n","      (layer_integrators): ModuleList(\n","        (0-11): 12 x None\n","      )\n","      (rotary_pos_emb): RotaryEmbedding()\n","      (adaptive_mlp): Identity()\n","      (final_norm): LayerNorm(\n","        (ln): LayerNorm((2048,), eps=1e-05, elementwise_affine=False)\n","      )\n","      (skip_combines): ModuleList(\n","        (0-11): 12 x None\n","      )\n","    )\n","    (norm1): LayerNorm((2048,), eps=1e-05, elementwise_affine=True)\n","    (norm2): LayerNorm((2048,), eps=1e-05, elementwise_affine=True)\n","    (feed_forward): Sequential(\n","      (0): Linear(in_features=2048, out_features=8192, bias=True)\n","      (1): GELU(approximate='none')\n","      (2): Linear(in_features=8192, out_features=2048, bias=True)\n","    )\n","  )\n","  (linear3): Linear(in_features=2048, out_features=2048, bias=True)\n","  (layer_norm3): LayerNorm((2048,), eps=1e-05, elementwise_affine=True)\n","  (activation3): GELU(approximate='none')\n","  (noise_regressor): Noise_Regressor(\n","    (norm1): LayerNorm((2048,), eps=1e-05, elementwise_affine=True)\n","    (hidden_state_to_noise_params): Linear(in_features=2048, out_features=864, bias=True)\n","    (kinematics_generator): PerIMUKinematicsGenerator()\n","  )\n",")"]},"metadata":{},"execution_count":5}]},{"cell_type":"markdown","source":["# Just checking if I uploaded the correct model"],"metadata":{"id":"7sG5i5HTGMwj"}},{"cell_type":"code","source":["curr_loss = 0\n","\n","with torch.no_grad():\n","  for data in dev_loader:\n","    data =
…
